genaifdp/python/pretrained_gan_model.pth (torch, 458975 bytes, 4 tensors)

model.0.weight f4 [128, 100]
-0.09477568 0.07961028 0.01861272 -0.025330007 -0.09470989 0.02468349 -0.05118052 0.0080920085
-0.0424104 0.03208422 -0.07981511 0.02844178 0.017240085 0.045194544 -0.044108678 0.08320571
-0.019684352 -0.0848611 0.054638468 -0.014298871 -0.032477632 -0.08095507 0.0815204 -0.024138667
0.054055028 0.05818691 -0.059264123 -0.062197268 0.01532273 -0.046174504 0.056172185 0.07174834
0.09256738 -0.05292319 -0.09766876 0.09600157 0.035533912 0.06228807 -0.039934434 -0.017655492
0.031676657 -0.079220116 0.074119486 -0.052447595 0.034272783 0.0514429 0.031924255 -0.012273505
0.021076284 0.09880703 0.083524786 -0.040395416 0.09779257 0.01182352 -0.08573636 0.06592239
-0.06434342 -0.018422946 -0.028151013 0.02879209 0.065630145 0.07640221 -0.095760204 0.073832326
-0.061007917 -0.06892784 -0.05092266 -0.057405856 0.075410135 0.08836999 -0.054868747 -0.07971726
0.04757098 -0.012792744 -0.08398966 -0.053855896 -0.02998636 0.026263274 -0.040580776 0.06795374
0.03509883 -0.07748648 0.017918013 -0.030064806 -0.046712365 0.016200438 -0.086469114 0.013130009
-0.04535371 -0.08018104 -0.09005778 -0.014802828 0.076095946 0.071155734 -0.08785378 -0.005177304
0.09754265 -0.03536556 0.09761975 -0.09825454 -0.07825921 -0.01754333 0.078845225 0.015382253
-0.088170364 -0.0041822568 -0.051611483 -0.09047176 0.049833067 0.09437842 0.048424013 0.09598107
0.010872029 0.017712973 -0.051642478 0.019460842 -0.037222825 0.05766911 0.048274048 0.07825158
-0.02141118 0.013133727 -0.0024264604 -0.067606784 -0.06393552 0.06611692 0.034505107 -0.09862387
-0.097955205 -0.0070905834 0.06483287 0.036750264 -0.0032062978 -0.046284784 0.02806253 0.09014527
-0.086837135 0.033193298 0.05921299 0.099900596 0.07685437 -0.03736557 0.06998899 -0.06967342
-0.020436026 -0.08707523 0.08805827 -0.047670305 0.03786505 -0.08735933 0.09467713 0.014880851
-0.09711905 -0.029611126 -0.051059056 -0.009244874 -0.06455335 -0.00046702474 0.05872584 0.09029525
0.030318297 0.048337467 0.08364383 -0.013867281 0.073581584 0.001608178 -0.03065785 0.06128686
0.07587654 0.03421133 0.07903316 -0.06036378 0.09210863 0.047079094 0.014989376 0.09869238
0.040949933 -0.06868261 0.063458435 -0.0855849 -0.0023232922 0.018459402 -0.09638124 0.0025124773
-0.082447074 0.0028629526 0.030790456 -0.08938485 0.017133817 -0.06667242 -0.07646419 -0.02282761
0.04748323 -0.05960691 0.08533346 0.07980246 -0.032623567 0.06413566 0.09456163 -0.049876656
0.029498689 0.0044010505 0.042525314 0.017886862 0.08589604 0.07545615 -0.004654661 -0.008646749
0.039024957 -0.044299114 -0.024638817 0.02137997 0.072724305 0.062103935 0.032567166 0.028401397
0.022929825 -0.06536762 -0.032778405 0.06450785 -0.073159955 -0.06149893 0.07454366 -0.058776524
0.04730005 0.058074065 -0.06201159 -0.052401304 -0.07290977 -0.0070971027 0.01298666 0.005146846
0.09766268 -0.096721366 -0.045120634 0.05398143 0.011355296 0.063080795 -0.022659384 0.07289276
0.010158919 -0.0872906 -0.0050443783 -0.021010064 -0.015928388 -0.07038317 0.05553315 0.042956896
0.03379976 0.04210014 0.07032881 0.06022788 -0.07461609 0.046595894 -0.07940568 0.033642836
00000000: c019 c2bd b70a a33d b479 983c e080 cfbc
00000010: 42f7 c1bd 0835 ca3c aaa2 51bd 5894 043c
00000020: 87b6 2dbd be6a 033d 1b76 a3bd bcfe e83c
00000030: 143b 8d3c ea1d 393d 4dab 34bd c167 aa3d
00000040: 1441 a1bc a8cb adbd 96cc 5f3d d045 6abc
00000050: 4407 05bd c6cb a5bd 2bf4 a63d 74be c5bc
00000060: ce68 5d3d 6655 6e3d f0be 72bd 90c2 7ebd
00000070: 300c 7b3c 7a21 3dbd ce14 663d cbf0 923d
00000080: f793 bd3d fdc5 58bd 8f06 c8bd 799c c43d
00000090: 028c 113d c621 7f3d 4a92 23bd 40a2 90bc
000000a0: 62bf 013d 283e a2bd f5cb 973d 4ad3 56bd
000000b0: 9e61 0c3d cab5 523d 02c3 023d d016 49bc
000000c0: 2ca8 ac3c 575b ca3d 0b0f ab3d aa75 25bd
000000d0: 7947 c83d 70b7 413c 8b96 afbd 5102 873d
000000e0: 7cc6 83bd b8eb 96bc f49c e6bc 64dd eb3c
000000f0: 1969 863d c378 9c3d ed1d c4bd 6735 973d
00000100: 70e3 79bd 0a2a 8dbd 4794 50bd 6722 6bbd
00000110: a170 9a3d 53fb b43d 0dbe 60bd ce42 a3bd
00000120: cad9 423d a898 51bc c502 acbd 0098 5cbd
00000130: f4a5 f5bc 1426 d73c 0738 26bd 552b 8b3d
00000140: cac3 0f3d 3bb1 9ebd ccc8 923c 784a f6bc
00000150: 7755 3fbd c8b6 843c b816 b1bd 401f 573c
00000160: d0c4 39bd f535 a4bd 3770 b8bd 9087 72bc
00000170: 31d8 9b3d 19ba 913d afec b3bd 60a6 a9bb
00000180: 71c4 c73d 7adb 10bd ddec c73d ad39 c9bd
00000190: 5d46 a0bd 08b7 8fbc 9b79 a13d d805 7c3c
000001a0: aa92 b4bd 500b 89bb 9066 53bd 4249 b9bd
000001b0: c21d 4c3d 7949 c13d 4258 463d b991 c43d
000001c0: 9820 323c cc1a 913c 1087 53bd 586c 9f3c
000001d0: f676 18bd 7236 6c3d 02bb 453d 5d42 a03d
000001e0: 8066 afbc d82e 573c 4005 1fbb 6d75 8abd
000001f0: a0f0 82bd 4f68 873d 3a55 0d3d 50fb c9bd
00000200: bd9c c8bd 2058 e8bb 19c7 843d 7287 163d
00000210: c020 52bb 1d95 3dbd 64e3 e53c 159e b83d
00000220: abd7 b1bd b2f5 073d 5289 723d af98 cc3d
00000230: d365 9d3d a40c 19bd 6356 8f3d f0b0 8ebd
00000240: 7469 a7bc 8054 b2bd e557 b43d f041 43bd
00000250: 6218 1b3d 73e9 b2bd 15e6 c13d d0ce 733c
00000260: 5ae6 c6bd 0893 f2bc 4d23 51bd d077 17bc
00000270: 8c34 84bd 00db f4b9 828a 703d b7ec b83d
00000280: 145e f83c 82fd 453d 754d ab3d 9833 63bc
00000290: f1b1 963d 80c9 d23a 2c26 fbbc ee07 7b3d
000002a0: 2965 9b3d 2e21 0c3d 23dc a13d 0340 77bd
000002b0: 73a3 bc3d 02d6 403d 0096 753c 3b1f ca3d
000002c0: 1ebb 273d 78a9 8cbd 7ff6 813d 2347 afbd
000002d0: 6042 18bb 2c38 973c 8763 c5bd 60a8 243b
000002e0: 03da a8bd 60a0 3b3b 443c fc3c 670f b7bd
000002f0: 385c 8c3c 8d8b 88bd 4299 9cbd f800 bbbc
00000300: c67d 423d 6026 74bd 4fc3 ae3d 796f a33d
00000310: 4aa0 05bd 8f59 833d 87a9 c13d 774b 4cbd
00000320: 3ca7 f13c b036 903b 062f 2e3d 7887 923c
00000330: 43ea af3d c188 9a3d 2086 98bb 18ab 0dbc
00000340: a2d8 1f3d fd72 35bd 58d7 c9bc 0c25 af3c
00000350: 7bf0 943d b260 7e3d 2665 053d 0caa e83c
00000360: 54d7 bb3c 75df 85bd a642 06bd b11c 843d
00000370: e3d4 95bd 4de6 7bbd 59aa 983d a7bf 70bd
00000380: b2bd 413d 12df 6d3d ddff 7dbd c0a2 56bd
00000390: b851 95bd d08e e8bb 00c6 543c e0a6 a83b
000003a0: 5f03 c83d da15 c6bd 6ad0 38bd a21b 5d3d
000003b0: 900b 3a3c 8130 813d 2ca0 b9bc cd48 953d
000003c0: 9871 263c 6ac5 b2bd 504b a5bb 4c1d acbc
000003d0: 407c 82bc 0d25 90bd ba76 633d 92f3 2f3d
000003e0: 9e71 0a3d 3271 2c3d 8d08 903d 82b1 763d
000003f0: 52d0 98bd 56db 3e3d 729f a2bd 12cd 093d

model.0.bias f4 [128]
0.0023254603 0.057541378 -0.049988866 -0.050833594 0.05031205 0.07678831 -0.056636777 -0.035222195
0.05791802 0.089692526 -0.07681557 -0.051551368 0.04298777 0.08987399 0.014980495 0.07685114
0.06283014 0.082780145 0.013932839 0.01015681 -0.056940306 -0.041951705 0.032032438 0.092153855
0.07029308 0.042508774 -0.07537595 0.063416205 0.0059815273 -0.01977326 -0.096173085 -0.07565516
0.098497815 0.07964062 -0.06000756 -0.08902866 0.043469794 0.08118821 0.01127664 -0.021350361
-0.023837611 0.06017811 -0.09566771 -0.094084896 -0.029908419 -0.013706818 -0.097085334 0.006698206
-0.07523944 -0.009828292 -0.036434367 0.061256282 -0.07788116 -0.070902765 -0.038081434 -0.03733035
-0.06098131 -0.02009593 0.012817398 0.061796166 0.012202702 0.053058453 0.08968439 -0.018347241
-0.041961968 -0.045911014 0.0017068833 -0.09581417 -0.0021864548 -0.08563959 0.08320645 -0.08312734
-0.0577263 -0.08896525 -0.02091378 -0.020474836 0.0038550124 -0.000536263 -0.077190265 0.06695371
0.0027570948 0.04019586 -0.008529946 -0.020472847 -3.4190714e-05 -0.016814075 0.05742503 0.06040021
0.09458979 0.052538864 -0.051555622 -0.05321188 0.09205707 -0.07274543 0.04561133 -0.03915138
0.036969446 0.03701528 -0.03636785 -0.02614361 0.032999404 0.07725034 0.024577357 -0.085504256
0.09235556 -0.045170106 -0.08857792 -0.0819902 0.096218415 0.080009155 0.0940919 -0.0129060745
0.07361018 -0.044043552 0.006415449 -0.09642489 0.08991074 0.06449064 -0.061570454 0.05664126
0.099160574 -0.09785365 -0.082682215 0.07986259 -0.038810708 -0.089518666 -0.06864865 0.074844025
00000000: c066 183b 82b0 6b3d 20c1 4cbd e336 50bd
00000010: 0214 4e3d 3143 9d3d f7fb 67bd 2645 10bd
00000020: 723b 6d3d b7b0 b73d 7b51 9dbd 8727 53bd
00000030: f213 303d db0f b83d c070 753c 2164 9d3d
00000040: 17ad 803d a388 a93d 9046 643c c068 263c
00000050: 3d3a 69bd 8dd5 2bbd 7234 033d 29bb bc3d
00000060: d1f5 8f3d ae1d 2e3d b55e 9abd 5be0 813d
00000070: b000 c43b 88fb a1bc 65f6 c4bd 18f1 9abd
00000080: 39b9 c93d 9f1a a33d 7dca 75bd a854 b6bd
00000090: 620d 323d 0146 a63d a8c1 383c f4e6 aebc
000000a0: 1847 c3bc 527d 763d 6fed c3bd 95af c0bd
000000b0: 8002 f5bc 9092 60bc add4 c6bd a07c db3b
000000c0: 2317 9abd d806 21bc 343c 15bd dee7 7a3d
000000d0: 2880 9fbd 7835 91bd 47fb 1bbd b6e7 18bd
000000e0: 8ac7 79bd 38a0 a4bc 1000 523c fa1d 7d3d
000000f0: d8ed 473c d253 593d 73ac b73d f44c 96bc
00000100: 50e0 2bbd 300d 3cbd 80b9 df3a 383a c4bd
00000110: a04a 0fbb cf63 afbd 2568 aa3d ab3e aabd
00000120: 6a72 6cbd 6a33 b6bd 6053 abbc d8ba a7bc
00000130: 60a4 7c3b 0094 0cba ee15 9ebd 071f 893d
00000140: 60b0 343b 6aa4 243d 30c1 0bbc acb6 a7bc
00000150: 0068 0fb8 acbd 89bc 8236 6b3d 3666 773d
00000160: 4bb8 c13d fe32 573d fd2b 53bd b3f4 59bd
00000170: 6b88 bc3d 8efb 94bd f2d2 3a3d 335d 20bd
00000180: 466d 173d 569d 173d 74f6 14bd 202b d6bc
00000190: 622a 073d 6d35 9e3d 7456 c93c db1c afbd
000001a0: e924 bd3d 4a04 39bd 5768 b5bd 7aea a7bd
000001b0: 290e c53d d7db a33d 41b3 c03d 0074 53bc
000001c0: efc0 963d 0367 34bd b038 d23b 6a7a c5bd
000001d0: 1f23 b83d ab13 843d 4d31 7cbd aa00 683d
000001e0: b314 cb3d 7f67 c8bd 4b55 a9bd ff8e a33d
000001f0: faf7 1ebd 9055 b7bd aa97 8cbd d347 993d

model.2.weight f4 [784, 128]
0.07839558 -0.06311948 0.037814073 -0.05772894 -0.088309385 0.010885224 0.065036826 0.026802167
0.054846533 0.01982028 0.047524698 -0.0019031018 -0.08010499 -0.053698454 -0.059431754 -0.055527143
0.04806947 0.0129366815 -0.06663604 0.014732733 0.011958323 -0.03791796 -0.050474495 0.077063076
-0.06864837 0.08017599 0.07358966 0.060880117 -0.062313326 0.030543514 -0.040976882 0.03322117
0.07310482 0.002460152 -0.009713322 -0.034408506 -0.0053475574 0.06850187 0.008569278 0.013108999
-0.022815198 -0.035340637 -0.054555617 0.04901188 -0.07174341 0.06383667 -0.033318896 -0.04617543
0.08761559 -0.07696283 0.069639824 -0.06581109 -0.002505511 -0.07645509 -0.059771277 -0.043841276
-0.011808515 -0.02875197 0.03476625 0.013774842 -0.07960681 -0.07148671 -0.08764668 -0.036014576
0.031989038 0.067800574 -0.07300683 0.029594071 -0.081050366 0.0595062 -0.07474518 0.07442068
-0.019397445 0.024696186 -0.0060176104 -0.018619858 -0.058377534 0.041774713 0.04585909 -0.08640244
-0.053903393 -0.0014607161 0.03225507 -0.07112683 -0.009939313 0.008452602 0.03462883 -0.02468741
-0.040525913 -0.05418739 -0.027915437 -0.047099512 0.031189017 0.083795376 -0.021761648 0.028376654
-0.016049035 -0.00398355 -0.045434345 0.049425505 -0.07122595 0.08556976 0.08523116 0.083734296
-0.03214674 0.06618657 -0.06162417 0.0586038 -0.042654738 -0.07312517 0.0053745434 0.041758858
0.07548951 -0.05561461 -0.0014522746 0.035858914 0.021121725 -0.079826854 0.041629232 -0.038895693
-0.075010054 -0.040635176 0.035013355 -0.06602194 0.057905667 0.05958555 0.043167673 0.028360434
-0.052033402 -0.053623244 -0.0037061498 -0.06599384 0.0534152 -0.0046993867 -0.07563398 -0.019063063
0.01436574 -0.027683482 0.058481865 -0.0065765306 0.009172611 0.04105053 -0.06328169 0.051502608
-0.0065600723 -0.07987699 0.06254753 0.060711317 0.008910969 -0.07883257 0.06723509 -0.023386776
-0.05627248 -0.047840465 0.0021012202 0.06664852 -0.018754356 -0.033308547 -0.06325923 -0.0840371
-0.010772847 0.040213905 -0.06473154 0.04244805 -0.06193182 -0.010197438 0.05360616 0.008722298
-0.043591704 -0.034990817 0.0017446801 0.0389572 -0.054331627 -0.07305628 0.0125902295 0.0023928434
-0.03401965 -0.07970391 0.08190649 -0.08032109 -0.058009677 0.023503073 0.02289702 0.05874733
-0.0591122 -0.072199374 0.01747758 -0.04091714 0.026853897 -0.008802377 -0.07383582 -0.0032492876
0.026721463 0.033098914 -0.05427744 -0.027072005 0.08481314 -0.038066063 -0.016896807 -0.019602902
0.0203344 -0.029720522 0.040877275 0.02749969 -0.012289524 -0.06270782 0.047793992 0.03713765
0.08380785 0.04480546 0.08594022 -0.043403096 -0.042413797 -0.054048844 0.010060176 0.074982144
-0.02480007 0.0016931221 -0.026820652 0.004001811 -0.029318001 -0.0008415878 -0.08132435 -0.054690972
0.017306678 -0.02267398 0.08658137 0.01575818 0.015390702 -0.074299075 0.04306049 0.037644275
-0.022437736 -0.040705267 -0.009678051 -0.045262195 -0.0042297393 0.08298197 0.07789073 0.0022121593
0.08091708 0.055244334 -0.06538282 -0.03423424 0.036075234 -0.051858924 -0.023464859 0.07391522
-0.06836792 0.022672214 -0.06069413 0.053903632 -0.007436402 0.009508066 0.052821867 0.024133861
00000000: dd8d a03d c944 81bd eee2 1a3d 2e75 6cbd
00000010: 8ddb b4bd f057 323c 0732 853d 3890 db3c
00000020: c2a6 603d 245e a23c 42a9 423d 8071 f9ba
00000030: 160e a4bd e9f2 5bbd b66e 73bd 6e70 63bd
00000040: 7ee4 443d 60f4 533c 7a78 88bd 9061 713c
00000050: d8ec 433c dd4f 1bbd 58be 4ebd 3fd3 9d3d
00000060: 8497 8cbd 4f33 a43d 2db6 963d 6e5d 793d
00000070: 423c 7fbd 6436 fa3c 60d7 27bd ec12 083d
00000080: fbb7 953d 803a 213b a024 1fbc efef 0cbd
00000090: 903a afbb b54a 8c3d 2866 0c3c 20c7 563c
000000a0: f0e6 babc 58c1 10bd b675 5fbd aec0 483d
000000b0: 35ee 92bd cdbc 823d 6579 08bd 7322 3dbd
000000c0: cd6f b33d b09e 9dbd 539f 8e3d f7c7 86bd
000000d0: 8033 24bb 7c94 9cbd bad2 74bd e992 33bd
000000e0: 8078 41bc 4089 ebbc 0e67 0e3d e0af 613c
000000f0: e508 a3bd a067 92bd 1a80 b3bd 0584 13bd
00000100: f006 033d 07db 8a3d 9b84 95bd 446f f23c
00000110: bcfd a5bd c6bc 733d 0014 99bd df69 983d
00000120: 64e7 9ebc a84f ca3c 602f c5bb ac88 98bc
00000130: 481d 6fbd f61b 2b3d bed6 3b3d c3f3 b0bd
00000140: cec9 5cbd 8075 bfba e41d 043d f2aa 91bd
00000150: 80d8 22bc c87c 0a3c f6d6 0d3d 403d cabc
00000160: 80fe 25bd 99f3 5dbd eaae e4bc 6beb 40bd
00000170: 1c80 ff3c e99c ab3d 7c45 b2bc 2876 e83c
00000180: 4479 83bc 7088 82bb 5d19 3abd 6672 4a3d
00000190: e9de 91bd 333f af3d ad8d ae3d e37c ab3d
000001a0: 4dac 03bd d38c 873d a069 7cbd 8a0a 703d
000001b0: bcb6 2ebd a6c2 95bd f01c b03b 560b 2b3d
000001c0: 3f9a 9a3d 25cc 63bd 405a beba cce0 123d
000001d0: 7807 ad3c 437c a3bd 6a83 2a3d 1751 1fbd
000001e0: df9e 99bd 1271 26bd 2a6a 0f3d 8336 87bd
000001f0: 7e2e 6d3d fa0f 743d 96d0 303d 2454 e83c
00000200: fa20 55bd 0ca4 5bbd e0e2 72bb c727 87bd
00000210: e6c9 5a3d 50fd 99bb fde5 9abd 242a 9cbc
00000220: 485e 6b3c 78c8 e2bc ae8a 6f3d f07f d7bb
00000230: b848 163c 9a24 283d d599 81bd 66f4 523d
00000240: e0f5 d6bb 8c96 a3bd eb18 803d 6eac 783d
00000250: 50ff 113c f872 a1bd 8db2 893d a095 bfbc
00000260: f97d 66bd 5df4 43bd a0b4 093b 057f 883d
00000270: bca2 99bc 8b6e 08bd 0e8e 81bd a51b acbd
00000280: 9880 30bc 56b7 243d f891 84bd 02de 2d3d
00000290: 38ac 7dbd 2813 27bc 2292 5b3d f8e7 0e3c
000002a0: 378d 32bd 8852 0fbd c0ad e43a 9691 1f3d
000002b0: d78a 5ebd 889e 95bd 4047 4e3c 40d1 1c3b
000002c0: 3058 0bbd ce3b a3bd 97be a73d 627f a4bd
000002d0: 8e9b 6dbd 8489 c03c 8892 bb3c 0aa1 703d
000002e0: a21f 72bd 44dd 93bd 242d 8f3c bb98 27bd
000002f0: b4fc db3c d837 10bc 3c37 97bd 00f2 54bb
00000300: f8e6 da3c ba92 073d 0552 5ebd 1cc6 ddbc
00000310: 83b2 ad3d 29eb 1bbd 2c6b 8abc 4496 a0bc
00000320: 5494 a63c 7478 f3bc ee6e 273d 0847 e13c
00000330: 005a 49bc f56c 80bd a2c3 433d a61d 183d
00000340: 73a3 ab3d ee85 373d 6d01 b03d 72c7 31bd
00000350: 17ba 2dbd 5262 5dbd 70d3 243c 3d90 993d
00000360: 8429 cbbc c0eb dd3a fcb6 dbbc a021 833b
00000370: 4e2c f0bc 009e 5cba 618d a6bd a403 60bd
00000380: bcc6 8d3c c8be b9bc 9351 b13d 4c17 813c
00000390: 4829 7c3c 1d2a 98bd 3260 303d e230 1a3d
000003a0: 58cf b7bc 91ba 26bd b090 1ebc da64 39bd
000003b0: a099 8abb 73f2 a93d 2d85 9f3d e0f9 103b
000003c0: dbb7 a53d e247 623d 6ee7 85bd 3439 0cbd
000003d0: a0c3 133d 066a 54bd 6039 c0bc dd60 973d
000003e0: 7b04 8cbd 14bb b93c 689a 78bd 0eca 5c3d
000003f0: 10ad f3bb b8c7 1b3c be5b 583d 60b4 c53c

model.2.bias f4 [784]
0.061376415 0.01834935 -0.036198527 0.007492043 0.03451766 0.0058926344 0.027884312 -0.03581398
-0.03554798 -0.051663734 0.0317756 -0.085348465 -0.037019726 0.04241044 0.047633253 -0.03047787
0.02726166 -0.080013886 0.022328578 0.07968219 -0.021554701 0.05318541 0.038977094 -0.014084801
-0.07413148 -0.035208024 0.052271537 -0.0036718026 0.036290333 -0.024379931 0.041406386 -0.052900363
0.028870605 -0.034252394 0.08610272 0.057746343 0.016765766 0.030374222 0.08670833 -0.010411806
-0.020492598 -0.0321519 0.06842647 -0.052815765 -0.025607422 -0.0015466288 -0.06988385 0.022059679
-0.068269685 -0.082955405 0.030594878 -0.03060013 0.007850476 -0.018440068 -0.00220716 0.062824674
-0.015161693 -0.07783888 0.037681825 -0.046585742 0.06646071 0.008944064 0.077305056 -0.08209927
-0.054953072 -0.034657847 0.083093874 -0.031624097 0.0030891672 -0.085615955 0.04384143 -0.03791679
-0.06905597 -0.031998012 -0.04553756 -0.03132397 -0.06599426 0.030161172 0.07458366 0.083224125
0.0103542805 0.061326735 -0.06021637 0.08543896 0.013684198 -0.031760357 -0.06734227 0.039453752
0.08722276 0.059312426 -0.02644388 0.047718473 -0.051636443 0.079444356 -0.015112795 -0.08699611
-0.039101318 -0.06715935 0.0065227747 -0.011392072 0.034699835 -0.051165577 0.039429836 -0.03884695
0.048916854 -0.061289493 -0.087026864 0.06613312 0.08406038 -0.046799134 -0.03894098 -0.05101721
0.079110764 0.030264564 -0.05129083 0.07210224 -0.058332175 -0.05382868 0.05979062 -0.05222438
-0.0016900599 -0.0007914826 -0.017541803 -0.029610038 -0.030956566 -0.04120694 0.025646769 -0.07802692
0.0058018193 0.08010409 0.088129126 -0.036972363 0.07596705 0.08324691 0.0807761 -0.033215858
0.006450787 -0.033230796 -0.043698926 0.0013606399 -0.031979438 0.010066077 -0.004468322 -0.087437764
-0.010095395 0.017459437 0.06602267 -0.0109500885 -0.06582747 -0.056736547 0.002895616 0.07265682
-0.008556254 -0.063275926 -0.08468665 -0.050828982 0.004835747 0.07795171 -0.002551183 -0.052289773
0.07711581 0.044334136 0.04254601 -0.010913387 0.036045372 -0.06340344 0.029683068 0.047470443
-0.02020283 0.0024762824 -0.036847927 0.071782194 0.027725257 0.050746925 0.07360754 0.07254688
0.048586227 -0.024565682 0.067284875 0.010645755 -0.08219379 0.020976432 -0.016584702 0.05097062
-0.08823112 -0.06557688 0.0851411 0.07407472 -0.026919361 -0.0030081868 0.073702864 -0.08125891
-0.026488513 0.014711104 -0.029432513 -0.04753567 0.084615774 -0.084646404 -0.06243692 0.07520128
-0.06859134 0.04560163 0.033840716 0.045363046 0.010644689 -0.00064950436 -0.0082132295 -0.023525052
0.0134752765 0.0849328 -0.06225805 -0.012824424 -0.0457044 0.045249365 0.011560857 0.0040676966
0.057989337 -0.059175596 0.013087094 -0.02994936 -0.0011334792 -0.03637649 -0.04750154 0.07052887
0.006495133 0.06415013 -0.0045596138 0.085775815 -0.023064159 -0.005108811 0.07515108 0.045945726
0.08485808 -0.07384065 -0.06892806 -0.032257818 0.06336597 -0.040409606 0.06199365 0.08129472
0.04458431 -0.006219603 0.0713579 -0.05017239 -0.0015041083 0.0565828 0.08818523 -0.0056750625
0.018297203 -0.011951223 0.049848817 0.080504216 -0.044338495 0.047905736 0.06604362 -0.03378487
00000000: d665 7b3d 6051 963c e844 14bd d07f f53b
00000010: 6462 0d3d 0017 c13b a46d e43c aeb1 12bd
00000020: c29a 11bd 5a9d 53bd 2227 023d 2dcb aebd
00000030: ffa1 17bd 92b6 2d3d 161b 433d baac f9bc
00000040: d853 df3c 52de a3bd 6cea b63c 6b30 a33d
00000050: 7c93 b0bc f2d8 593d 72a6 1f3d f0c3 66bc
00000060: 3fd2 97bd 4a36 10bd ae1a 563d a0a2 70bb
00000070: 2ca5 143d 6cb8 c7bc be99 293d 0dae 58bd
00000080: 0c82 ec3c 3d4c 0cbd 9f56 b03d 6e87 6c3d
00000090: 5c58 893c 5cd3 f83c 2394 b13d 4896 2abc
000000a0: 18e0 a7bc b6b1 03bd 2d23 8c3d 5855 58bd
000000b0: a8c6 d1bc 40b8 caba 441f 8fbd 80b6 b43c
000000c0: fad0 8bbd 86e4 a9bd 1ca2 fa3c 20ad fabc
000000d0: 489f 003c a00f 97bc 00a6 10bb 39aa 803d
000000e0: c068 78bc fe69 9fbd 4258 1a3d b1d0 3ebd
000000f0: 8d1c 883d 208a 123c 1d52 9e3d a923 a8bd
00000100: 7916 61bd 63f5 0dbd 1f2d aa3d 4588 01bd
00000110: a073 4a3b 6b57 afbd 1293 333d a34e 1bbd
00000120: 376d 8dbd 5910 03bd 9885 3abd 904d 00bd
00000130: 0028 87bd 9014 f73c 51bf 983d 6971 aa3d
00000140: 00a5 293c be31 7b3d 71a5 76bd 9ffa ae3d
00000150: b033 603c 2617 02bd beea 89bd 429a 213d
00000160: d9a1 b23d 96f1 723d d6a0 d8bc 7274 433d
00000170: bc80 53bd b9b3 a23d a89b 77bc 042b b2bd
00000180: b428 20bd d78a 89bd 00bd d53b d0a5 3abc
00000190: 6a21 0e3d ff92 51bd 2e81 213d fb1d 1fbd
000001a0: 0a5d 483d b10a 7bbd 243b b2bd cd70 873d
000001b0: d927 ac3d 73b0 3fbd 9480 1fbd 6cf7 50bd
000001c0: d304 a23d 64ed f73c 5516 52bd 57aa 933d
000001d0: b8ed 6ebd 767b 5cbd 02e7 743d 3be9 55bd
000001e0: 0085 ddba 807b 4fba d4b3 8fbc c090 f2bc
000001f0: a098 fdbc 9cc8 28bd 2c19 d23c 94cc 9fbd
00000200: 301d be3b 9d0d a43d 0b7d b43d 5570 17bd
00000210: 9d94 9b3d 5b7d aa3d f16d a53d 5a0d 08bd
00000220: 2061 d33b 041d 08bd a5fd 32bd 8057 b23a
00000230: dffc 02bd 30ec 243c 006b 92bb 9212 b3bd
00000240: 2867 25bc 1807 8f3c e536 873d 0068 33bc
00000250: 8dd0 86bd 9564 68bd 60c4 3d3b 19cd 943d
00000260: 882f 0cbc cf96 81bd 3270 adbd 0d32 50bd
00000270: 3075 9e3b 25a5 9f3d c031 27bb cd2d 56bd
00000280: e5ee 9d3d b697 353d ba44 2e3d 10ce 32bc
00000290: 50a4 133d aad9 81bd e829 f33c 5e70 423d
000002a0: 6880 a5bc 2049 223b daed 16bd 8b02 933d
000002b0: 1420 e33c 02dc 4f3d 8dbf 963d 7593 943d
000002c0: 5a02 473d f83d c9bc a7cc 893d 886b 2e3c
000002d0: 3855 a8bd c4d6 ab3c a4dc 87bc 92c6 503d
000002e0: 84b2 b4bd 2c4d 86bd 755e ae3d 7db4 973d
000002f0: fe85 dcbc 0025 45bb 87f1 963d 126b a6bd
00000300: 70fe d8bc d806 713c 741c f1bc c3b4 42bd
00000310: 094b ad3d 185b adbd dbbd 7fbd 2103 9a3d
00000320: 9e79 8cbd c6c8 3a3d 909c 0a3d 9ace 393d
00000330: 1067 2e3c 8043 2aba c890 06bc 9cb7 c0bc
00000340: 68c7 5c3c 3ff1 ad3d 4c02 7fbd 881d 52bc
00000350: 8934 3bbd 6657 393d c069 3d3c 504a 853b
00000360: 3a86 6d3d 1c62 72bd 406b 563c 5c58 f5bc
00000370: 4091 94ba 84ff 14bd fa90 42bd 7171 903d
00000380: 20d5 d43b 2561 833d d068 95bb 3bab af3d
00000390: 0cf1 bcbc d067 a7bb cfe8 993d 9631 3c3d
000003a0: 13ca ad3d c439 97bd 282a 8dbd c620 04bd
000003b0: 05c6 813d 8b84 25bd 0eed 7d3d d97d a63d
000003c0: 0a9e 363d d0cd cbbb 1724 923d 9081 4dbd
000003d0: 8025 c5ba 5ec3 673d 759a b43d e0f5 b9bb
000003e0: 04e4 953c 10cf 43bc 462e 4c3d 65df a43d
000003f0: 489c 35bd ce38 443d e141 873d 0162 0abd
